…
│                     │ 128)              │            │                   │
├─────────────────────┼───────────────────┼────────────┼───────────────────┤
"│ batch_normalizatio… │ (None, 64, 64,    │        512 │ conv2d_11[0][0]   │"
│ (BatchNormalizatio… │ 128)              │            │                   │
├─────────────────────┼───────────────────┼────────────┼───────────────────┤
"│ max_pooling2d_11    │ (None, 32, 32,    │          0 │ batch_normalizat… │"
│ (MaxPooling2D)      │ 128)              │            │                   │
├─────────────────────┼───────────────────┼────────────┼───────────────────┤
"│ flatten_3 (Flatten) │ (None, 131072)    │          0 │ max_pooling2d_11… │"
├─────────────────────┼───────────────────┼────────────┼───────────────────┤
"│ dense_6 (Dense)     │ (None, 256)       │ 33,554,688 │ flatten_3[0][0]   │"
├─────────────────────┼───────────────────┼────────────┼───────────────────┤
"│ dropout_3 (Dropout) │ (None, 256)       │          0 │ dense_6[0][0]     │"
├─────────────────────┼───────────────────┼────────────┼───────────────────┤
"│ seq_input           │ (None, 206)       │          0 │ -                 │"
│ (InputLayer)        │                   │            │                   │
├─────────────────────┼───────────────────┼────────────┼───────────────────┤
"│ repeat_vector_3     │ (None, 206, 256)  │          0 │ dropout_3[0][0]   │"
│ (RepeatVector)      │                   │            │                   │
├─────────────────────┼───────────────────┼────────────┼───────────────────┤
"│ embedding_3         │ (None, 206, 256)  │     33,280 │ seq_input[0][0]   │"
│ (Embedding)         │                   │            │                   │
├─────────────────────┼───────────────────┼────────────┼───────────────────┤
"│ concatenate_3       │ (None, 206, 512)  │          0 │ repeat_vector_3[… │"
│ (Concatenate)       │                   │            │ embedding_3[0][0] │
├─────────────────────┼───────────────────┼────────────┼───────────────────┤
"│ bidirectional_6     │ (None, 206, 512)  │  1,574,912 │ concatenate_3[0]… │"
│ (Bidirectional)     │                   │            │                   │
├─────────────────────┼───────────────────┼────────────┼───────────────────┤
"│ bidirectional_7     │ (None, 206, 512)  │  1,574,912 │ bidirectional_6[… │"
│ (Bidirectional)     │                   │            │                   │
├─────────────────────┼───────────────────┼────────────┼───────────────────┤
"│ time_distributed_3  │ (None, 206, 130)  │     66,690 │ bidirectional_7[… │"
│ (TimeDistributed)   │                   │            │                   │
└─────────────────────┴───────────────────┴────────────┴───────────────────┘
" Total params: 36,898,050 (140.75 MB)"
" Trainable params: 36,897,602 (140.75 MB)"
 Non-trainable params: 448 (1.75 KB)
""
""
